…
args': '{}', '_episode_storage': 'None', 'train_freq': "TrainFreq(frequency=4, unit=<TrainFrequencyUnit.STEP: 'step'>)", 'use_sde_at_warmup': 'False', 'exploration_initial_eps': 1.0, 'exploration_final_eps': 0.05, 'exploration_fraction': 0.1, 'target_update_interval': 10000, '_n_calls': 0, 'max_grad_norm': 10, 'exploration_rate': 0.0, 'lr_schedule': '<function get_schedule_fn.<locals>.<lambda> at 0x7f96ee338b80>', 'policy': 'DQNPolicy(\n  (q_net): QNetwork(\n    (features_extractor): FlattenExtractor(\n      (flatten): Flatten(start_dim=1, end_dim=-1)\n    )\n    (q_net): Sequential(\n      (0): Linear(in_features=8, out_features=64, bias=True)\n      (1): ReLU()\n      (2): Linear(in_features=64, out_features=64, bias=True)\n      (3): ReLU()\n      (4): Linear(in_features=64, out_features=4, bias=True)\n    )\n  )\n  (q_net_target): QNetwork(\n    (features_extractor): FlattenExtractor(\n      (flatten): Flatten(start_dim=1, end_dim=-1)\n    )\n    (q_net): Sequential(\n      (0): Linear(in_features=8, out_features=64, bias=True)\n      (1): ReLU()\n      (2): Linear(in_features=64, out_features=64, bias=True)\n      (3): ReLU()\n      (4): Linear(in_features=64, out_features=4, bias=True)\n    )\n  )\n)', 'q_net': 'QNetwork(\n  (features_extractor): FlattenExtractor(\n    (flatten): Flatten(start_dim=1, end_dim=-1)\n  )\n  (q_net): Sequential(\n    (0): Linear(in_features=8, out_features=64, bias=True)\n    (1): ReLU()\n    (2): Linear(in_features=64, out_features=64, bias=True)\n    (3): ReLU()\n    (4): Linear(in_features=64, out_features=4, bias=True)\n  )\n)', 'q_net_target': 'QNetwork(\n  (features_extractor): FlattenExtractor(\n    (flatten): Flatten(start_dim=1, end_dim=-1)\n  )\n  (q_net): Sequential(\n    (0): Linear(in_features=8, out_features=64, bias=True)\n    (1): ReLU()\n    (2): Linear(in_features=64, out_features=64, bias=True)\n    (3): ReLU()\n    (4): Linear(in_features=64, out_features=4, bias=True)\n  )\n)', 'batch_norm_stats': '[]', 'batch_norm_stats_target': '[]', 'exploration_schedule': '<function get_linear_fn.<locals>.func at 0x7f96cfba83a0>', '_logger': '<stable_baselines3.common.logger.Logger object at 0x7f96cfb82d10>'}
2025-04-06 18:25:08,387 INFO    MainThread:82557 [sb3.py:save_model():147] [no run ID] Saving model checkpoint to models/spuk99dh/model.zip
…
