…
            "3":
                - 1
                - 2
                - 3
                - 16
                - 22
                - 23
                - 35
                - 55
            "4": 3.10.12
            "5": 0.19.9
            "8":
                - 5
            "12": 0.19.9
            "13": linux-x86_64
action_noise:
    value: None
action_space:
    value: Box(-2.0, 2.0, (1,), float32)
actor:
    value: |-
        Actor(
          (features_extractor): FlattenExtractor(
            (flatten): Flatten(start_dim=1, end_dim=-1)
          )
          (mu): Sequential(
            (0): Linear(in_features=3, out_features=400, bias=True)
            (1): ReLU()
            (2): Linear(in_features=400, out_features=300, bias=True)
            (3): ReLU()
            (4): Linear(in_features=300, out_features=1, bias=True)
            (5): Tanh()
          )
        )
actor_batch_norm_stats:
    value: '[]'
actor_batch_norm_stats_target:
    value: '[]'
actor_target:
    value: |-
        Actor(
          (features_extractor): FlattenExtractor(
            (flatten): Flatten(start_dim=1, end_dim=-1)
          )
          (mu): Sequential(
            (0): Linear(in_features=3, out_features=400, bias=True)
            (1): ReLU()
            (2): Linear(in_features=400, out_features=300, bias=True)
            (3): ReLU()
            (4): Linear(in_features=300, out_features=1, bias=True)
            (5): Tanh()
          )
        )
algo:
    value: DDPG
algorithm:
    value: DDPG
batch_size:
    value: 256
buffer_size:
    value: 1000000
critic:
    value: |-
        ContinuousCritic(
          (features_extractor): FlattenExtractor(
            (flatten): Flatten(start_dim=1, end_dim=-1)
          )
          (qf0): Sequential(
            (0): Linear(in_features=4, out_features=400, bias=True)
            (1): ReLU()
            (2): Linear(in_features=400, out_features=300, bias=True)
            (3): ReLU()
            (4): Linear(in_features=300, out_features=1, bias=True)
          )
        )
critic_batch_norm_stats:
    value: '[]'
critic_batch_norm_stats_target:
    value: '[]'
critic_target:
    value: |-
        ContinuousCritic(
          (features_extractor): FlattenExtractor(
            (flatten): Flatten(start_dim=1, end_dim=-1)
          )
          (qf0): Sequential(
            (0): Linear(in_features=4, out_features=400, bias=True)
            (1): ReLU()
            (2): Linear(in_features=400, out_features=300, bias=True)
            (3): ReLU()
            (4): Linear(in_features=300, out_features=1, bias=True)
          )
        )
device:
    value: cpu
env:
    value: <stable_baselines3.common.vec_env.vec_video_recorder.VecVideoRecorder object at 0x7f1c1c7ae020>
env_name:
    value: Pendulum-v1
ep_info_buffer:
    value: deque([], maxlen=100)
ep_success_buffer:
    value: deque([], maxlen=100)
gamma:
    value: 0.99
gradient_steps:
    value: 1
learning_rate:
…
