…
t 0x7f1c1c3d5d20>', 'replay_buffer_class': "<class 'stable_baselines3.common.buffers.ReplayBuffer'>", 'replay_buffer_kwargs': '{}', '_episode_storage': 'None', 'train_freq': "TrainFreq(frequency=1, unit=<TrainFrequencyUnit.STEP: 'step'>)", 'use_sde_at_warmup': 'False', 'policy_delay': 1, 'target_noise_clip': 0.0, 'target_policy_noise': 0.1, 'lr_schedule': '<function get_schedule_fn.<locals>.<lambda> at 0x7f1c1b1f49d0>', 'policy': 'TD3Policy(\n  (actor): Actor(\n    (features_extractor): FlattenExtractor(\n      (flatten): Flatten(start_dim=1, end_dim=-1)\n    )\n    (mu): Sequential(\n      (0): Linear(in_features=3, out_features=400, bias=True)\n      (1): ReLU()\n      (2): Linear(in_features=400, out_features=300, bias=True)\n      (3): ReLU()\n      (4): Linear(in_features=300, out_features=1, bias=True)\n      (5): Tanh()\n    )\n  )\n  (actor_target): Actor(\n    (features_extractor): FlattenExtractor(\n      (flatten): Flatten(start_dim=1, end_dim=-1)\n    )\n    (mu): Sequential(\n      (0): Linear(in_features=3, out_features=400, bias=True)\n      (1): ReLU()\n      (2): Linear(in_features=400, out_features=300, bias=True)\n      (3): ReLU()\n      (4): Linear(in_features=300, out_features=1, bias=True)\n      (5): Tanh()\n    )\n  )\n  (critic): ContinuousCritic(\n    (features_extractor): FlattenExtractor(\n      (flatten): Flatten(start_dim=1, end_dim=-1)\n    )\n    (qf0): Sequential(\n      (0): Linear(in_features=4, out_features=400, bias=True)\n      (1): ReLU()\n      (2): Linear(in_features=400, out_features=300, bias=True)\n      (3): ReLU()\n      (4): Linear(in_features=300, out_features=1, bias=True)\n    )\n  )\n  (critic_target): ContinuousCritic(\n    (features_extractor): FlattenExtractor(\n      (flatten): Flatten(start_dim=1, end_dim=-1)\n    )\n    (qf0): Sequential(\n      (0): Linear(in_features=4, out_features=400, bias=True)\n      (1): ReLU()\n      (2): Linear(in_features=400, out_features=300, bias=True)\n      (3): ReLU()\n      (4): Linear(in_features=300, out_features=1, bias=True)\n    )\n  )\n)', 'actor': 'Actor(\n  (features_extractor): FlattenExtractor(\n    (flatten): Flatten(start_dim=1, end_dim=-1)\n  )\n  (mu): Sequential(\n    (0): Linear(in_features=3, out_features=400, bias=True)\n    (1): ReLU()\n    (2): Linear(in_features=400, out_features=300, bias=True)\n    (3): ReLU()\n    (4): Linear(in_features=300, out_features=1, bias=True)\n    (5): Tanh()\n  )\n)', 'actor_target': 'Actor(\n  (features_extractor): FlattenExtractor(\n    (flatten): Flatten(start_dim=1, end_dim=-1)\n  )\n  (mu): Sequential(\n    (0): Linear(in_features=3, out_features=400, bias=True)\n    (1): ReLU()\n    (2): Linear(in_features=400, out_features=300, bias=True)\n    (3): ReLU()\n    (4): Linear(in_features=300, out_features=1, bias=True)\n    (5): Tanh()\n  )\n)', 'critic': 'ContinuousCritic(\n  (features_extractor): FlattenExtractor(\n    (flatten): Flatten(start_dim=1, end_dim=-1)\n  )\n  (qf0): Sequential(\n    (0): Linear(in_features=4, out_features=400, bias=True)\n    (1): ReLU()\n    (2): Linear(in_features=400, out_features=300, bias=True)\n    (3): ReLU()\n    (4): Linear(in_features=300, out_features=1, bias=True)\n  )\n)', 'critic_target': 'ContinuousCritic(\n  (features_extractor): FlattenExtractor(\n    (flatten): Flatten(start_dim=1, end_dim=-1)\n  )\n  (qf0): Sequential(\n    (0): Linear(in_features=4, out_features=400, bias=True)\n    (1): ReLU()\n    (2): Linear(in_features=400, out_features=300, bias=True)\n    (3): ReLU()\n    (4): Linear(in_features=300, out_features=1, bias=True)\n  )\n)', 'actor_batch_norm_stats': '[]', 'critic_batch_norm_stats': '[]', 'actor_batch_norm_stats_target': '[]', 'critic_batch_norm_stats_target': '[]', '_logger': '<stable_baselines3.common.logger.Logger object at 0x7f1c00167280>'}
2025-04-07 15:13:32,273 INFO    MainThread:49235 [sb3.py:save_model():147] [no run ID] Saving model checkpoint to models/cidsqoji/model.zip
…
